7767517
162 171
Input            input                    0 1 input
Convolution      307                      1 1 input 307 0=16 1=3 11=3 2=1 12=1 3=2 13=2 4=1 14=1 15=1 16=1 5=0 6=432
BatchNorm        308                      1 1 307 308 0=16
ReLU             309                      1 1 308 309
Convolution      310                      1 1 309 310 0=16 1=1 11=1 2=1 12=1 3=1 13=1 4=0 14=0 15=0 16=0 5=0 6=256
BatchNorm        311                      1 1 310 311 0=16
ReLU             312                      1 1 311 312
ConvolutionDepthWise 313                      1 1 312 313 0=16 1=3 11=3 2=1 12=1 3=1 13=1 4=1 14=1 15=1 16=1 5=0 6=144 7=16
BatchNorm        314                      1 1 313 314 0=16
ReLU             315                      1 1 314 315
Convolution      316                      1 1 315 316 0=8 1=1 11=1 2=1 12=1 3=1 13=1 4=0 14=0 15=0 16=0 5=0 6=128
BatchNorm        317                      1 1 316 317 0=8
Convolution      318                      1 1 317 318 0=48 1=1 11=1 2=1 12=1 3=1 13=1 4=0 14=0 15=0 16=0 5=0 6=384
BatchNorm        319                      1 1 318 319 0=48
ReLU             320                      1 1 319 320
ConvolutionDepthWise 321                      1 1 320 321 0=48 1=3 11=3 2=1 12=1 3=2 13=2 4=1 14=1 15=1 16=1 5=0 6=432 7=48
BatchNorm        322                      1 1 321 322 0=48
ReLU             323                      1 1 322 323
Convolution      324                      1 1 323 324 0=12 1=1 11=1 2=1 12=1 3=1 13=1 4=0 14=0 15=0 16=0 5=0 6=576
BatchNorm        325                      1 1 324 325 0=12
Split            splitncnn_0              1 2 325 325_splitncnn_0 325_splitncnn_1
Convolution      326                      1 1 325_splitncnn_1 326 0=72 1=1 11=1 2=1 12=1 3=1 13=1 4=0 14=0 15=0 16=0 5=0 6=864
BatchNorm        327                      1 1 326 327 0=72
ReLU             328                      1 1 327 328
ConvolutionDepthWise 329                      1 1 328 329 0=72 1=3 11=3 2=1 12=1 3=2 13=2 4=1 14=1 15=1 16=1 5=0 6=648 7=72
BatchNorm        330                      1 1 329 330 0=72
ReLU             331                      1 1 330 331
Convolution      332                      1 1 331 332 0=16 1=1 11=1 2=1 12=1 3=1 13=1 4=0 14=0 15=0 16=0 5=0 6=1152
BatchNorm        333                      1 1 332 333 0=16
Split            splitncnn_1              1 2 333 333_splitncnn_0 333_splitncnn_1
Convolution      334                      1 1 333_splitncnn_1 334 0=96 1=1 11=1 2=1 12=1 3=1 13=1 4=0 14=0 15=0 16=0 5=0 6=1536
BatchNorm        335                      1 1 334 335 0=96
ReLU             336                      1 1 335 336
ConvolutionDepthWise 337                      1 1 336 337 0=96 1=3 11=3 2=1 12=1 3=2 13=2 4=1 14=1 15=1 16=1 5=0 6=864 7=96
BatchNorm        338                      1 1 337 338 0=96
ReLU             339                      1 1 338 339
Convolution      340                      1 1 339 340 0=32 1=1 11=1 2=1 12=1 3=1 13=1 4=0 14=0 15=0 16=0 5=0 6=3072
BatchNorm        341                      1 1 340 341 0=32
Split            splitncnn_2              1 2 341 341_splitncnn_0 341_splitncnn_1
Convolution      342                      1 1 341_splitncnn_1 342 0=192 1=1 11=1 2=1 12=1 3=1 13=1 4=0 14=0 15=0 16=0 5=0 6=6144
BatchNorm        343                      1 1 342 343 0=192
ReLU             344                      1 1 343 344
ConvolutionDepthWise 345                      1 1 344 345 0=192 1=3 11=3 2=1 12=1 3=1 13=1 4=1 14=1 15=1 16=1 5=0 6=1728 7=192
BatchNorm        346                      1 1 345 346 0=192
ReLU             347                      1 1 346 347
Convolution      348                      1 1 347 348 0=32 1=1 11=1 2=1 12=1 3=1 13=1 4=0 14=0 15=0 16=0 5=0 6=6144
BatchNorm        349                      1 1 348 349 0=32
BinaryOp         350                      2 1 341_splitncnn_0 349 350 0=0
Convolution      351                      1 1 350 351 0=192 1=1 11=1 2=1 12=1 3=1 13=1 4=0 14=0 15=0 16=0 5=0 6=6144
BatchNorm        352                      1 1 351 352 0=192
ReLU             353                      1 1 352 353
ConvolutionDepthWise 354                      1 1 353 354 0=192 1=3 11=3 2=1 12=1 3=1 13=1 4=1 14=1 15=1 16=1 5=0 6=1728 7=192
BatchNorm        355                      1 1 354 355 0=192
ReLU             356                      1 1 355 356
Convolution      357                      1 1 356 357 0=48 1=1 11=1 2=1 12=1 3=1 13=1 4=0 14=0 15=0 16=0 5=0 6=9216
BatchNorm        358                      1 1 357 358 0=48
Split            splitncnn_3              1 2 358 358_splitncnn_0 358_splitncnn_1
Convolution      359                      1 1 358_splitncnn_1 359 0=288 1=1 11=1 2=1 12=1 3=1 13=1 4=0 14=0 15=0 16=0 5=0 6=13824
BatchNorm        360                      1 1 359 360 0=288
ReLU             361                      1 1 360 361
ConvolutionDepthWise 362                      1 1 361 362 0=288 1=3 11=3 2=1 12=1 3=2 13=2 4=1 14=1 15=1 16=1 5=0 6=2592 7=288
BatchNorm        363                      1 1 362 363 0=288
ReLU             364                      1 1 363 364
Convolution      365                      1 1 364 365 0=80 1=1 11=1 2=1 12=1 3=1 13=1 4=0 14=0 15=0 16=0 5=0 6=23040
BatchNorm        366                      1 1 365 366 0=80
Convolution      367                      1 1 366 367 0=480 1=1 11=1 2=1 12=1 3=1 13=1 4=0 14=0 15=0 16=0 5=0 6=38400
BatchNorm        368                      1 1 367 368 0=480
ReLU             369                      1 1 368 369
ConvolutionDepthWise 370                      1 1 369 370 0=480 1=3 11=3 2=1 12=1 3=1 13=1 4=1 14=1 15=1 16=1 5=0 6=4320 7=480
BatchNorm        371                      1 1 370 371 0=480
ReLU             372                      1 1 371 372
Convolution      373                      1 1 372 373 0=160 1=1 11=1 2=1 12=1 3=1 13=1 4=0 14=0 15=0 16=0 5=0 6=76800
BatchNorm        374                      1 1 373 374 0=160
Split            splitncnn_4              1 2 374 374_splitncnn_0 374_splitncnn_1
ConvolutionDepthWise 375                      1 1 374_splitncnn_1 375 0=160 1=3 11=3 2=1 12=1 3=1 13=1 4=1 14=1 15=1 16=1 5=0 6=1440 7=160
BatchNorm        376                      1 1 375 376 0=160
ReLU             377                      1 1 376 377
Convolution      378                      1 1 377 378 0=48 1=1 11=1 2=1 12=1 3=1 13=1 4=0 14=0 15=0 16=0 5=0 6=7680
BatchNorm        379                      1 1 378 379 0=48
ReLU             380                      1 1 379 380
ConvolutionDepthWise 381                      1 1 380 381 0=48 1=3 11=3 2=1 12=1 3=1 13=1 4=1 14=1 15=1 16=1 5=0 6=432 7=48
BatchNorm        382                      1 1 381 382 0=48
ReLU             383                      1 1 382 383
Convolution      384                      1 1 383 384 0=48 1=1 11=1 2=1 12=1 3=1 13=1 4=0 14=0 15=0 16=0 5=0 6=2304
BatchNorm        385                      1 1 384 385 0=48
Convolution      386                      1 1 374_splitncnn_0 386 0=48 1=1 11=1 2=1 12=1 3=1 13=1 4=0 14=0 15=0 16=0 5=0 6=7680
BatchNorm        387                      1 1 386 387 0=48
BinaryOp         388                      2 1 385 387 388 0=0
ReLU             389                      1 1 388 389
Deconvolution    390                      1 1 389 390 0=48 1=4 11=4 2=1 12=1 3=2 13=2 4=1 14=1 15=1 16=1 5=0 6=36864
BinaryOp         391                      2 1 358_splitncnn_0 390 391 0=0
Split            splitncnn_5              1 2 391 391_splitncnn_0 391_splitncnn_1
ConvolutionDepthWise 392                      1 1 391_splitncnn_1 392 0=48 1=3 11=3 2=1 12=1 3=1 13=1 4=1 14=1 15=1 16=1 5=0 6=432 7=48
BatchNorm        393                      1 1 392 393 0=48
ReLU             394                      1 1 393 394
Convolution      395                      1 1 394 395 0=16 1=1 11=1 2=1 12=1 3=1 13=1 4=0 14=0 15=0 16=0 5=0 6=768
BatchNorm        396                      1 1 395 396 0=16
ReLU             397                      1 1 396 397
ConvolutionDepthWise 398                      1 1 397 398 0=16 1=3 11=3 2=1 12=1 3=1 13=1 4=1 14=1 15=1 16=1 5=0 6=144 7=16
BatchNorm        399                      1 1 398 399 0=16
ReLU             400                      1 1 399 400
Convolution      401                      1 1 400 401 0=16 1=1 11=1 2=1 12=1 3=1 13=1 4=0 14=0 15=0 16=0 5=0 6=256
BatchNorm        402                      1 1 401 402 0=16
Convolution      403                      1 1 391_splitncnn_0 403 0=16 1=1 11=1 2=1 12=1 3=1 13=1 4=0 14=0 15=0 16=0 5=0 6=768
BatchNorm        404                      1 1 403 404 0=16
BinaryOp         405                      2 1 402 404 405 0=0
ReLU             406                      1 1 405 406
Deconvolution    407                      1 1 406 407 0=16 1=4 11=4 2=1 12=1 3=2 13=2 4=1 14=1 15=1 16=1 5=0 6=4096
BinaryOp         408                      2 1 333_splitncnn_0 407 408 0=0
Split            splitncnn_6              1 2 408 408_splitncnn_0 408_splitncnn_1
ConvolutionDepthWise 409                      1 1 408_splitncnn_1 409 0=16 1=3 11=3 2=1 12=1 3=1 13=1 4=1 14=1 15=1 16=1 5=0 6=144 7=16
BatchNorm        410                      1 1 409 410 0=16
ReLU             411                      1 1 410 411
Convolution      412                      1 1 411 412 0=12 1=1 11=1 2=1 12=1 3=1 13=1 4=0 14=0 15=0 16=0 5=0 6=192
BatchNorm        413                      1 1 412 413 0=12
ReLU             414                      1 1 413 414
ConvolutionDepthWise 415                      1 1 414 415 0=12 1=3 11=3 2=1 12=1 3=1 13=1 4=1 14=1 15=1 16=1 5=0 6=108 7=12
BatchNorm        416                      1 1 415 416 0=12
ReLU             417                      1 1 416 417
Convolution      418                      1 1 417 418 0=12 1=1 11=1 2=1 12=1 3=1 13=1 4=0 14=0 15=0 16=0 5=0 6=144
BatchNorm        419                      1 1 418 419 0=12
Convolution      420                      1 1 408_splitncnn_0 420 0=12 1=1 11=1 2=1 12=1 3=1 13=1 4=0 14=0 15=0 16=0 5=0 6=192
BatchNorm        421                      1 1 420 421 0=12
BinaryOp         422                      2 1 419 421 422 0=0
ReLU             423                      1 1 422 423
Deconvolution    424                      1 1 423 424 0=12 1=4 11=4 2=1 12=1 3=2 13=2 4=1 14=1 15=1 16=1 5=0 6=2304
BinaryOp         425                      2 1 325_splitncnn_0 424 425 0=0
Split            splitncnn_7              1 2 425 425_splitncnn_0 425_splitncnn_1
ConvolutionDepthWise 426                      1 1 425_splitncnn_1 426 0=12 1=3 11=3 2=1 12=1 3=1 13=1 4=1 14=1 15=1 16=1 5=0 6=108 7=12
BatchNorm        427                      1 1 426 427 0=12
ReLU             428                      1 1 427 428
Convolution      429                      1 1 428 429 0=8 1=1 11=1 2=1 12=1 3=1 13=1 4=0 14=0 15=0 16=0 5=0 6=96
BatchNorm        430                      1 1 429 430 0=8
ReLU             431                      1 1 430 431
ConvolutionDepthWise 432                      1 1 431 432 0=8 1=3 11=3 2=1 12=1 3=1 13=1 4=1 14=1 15=1 16=1 5=0 6=72 7=8
BatchNorm        433                      1 1 432 433 0=8
ReLU             434                      1 1 433 434
Convolution      435                      1 1 434 435 0=8 1=1 11=1 2=1 12=1 3=1 13=1 4=0 14=0 15=0 16=0 5=0 6=64
BatchNorm        436                      1 1 435 436 0=8
Convolution      437                      1 1 425_splitncnn_0 437 0=8 1=1 11=1 2=1 12=1 3=1 13=1 4=0 14=0 15=0 16=0 5=0 6=96
BatchNorm        438                      1 1 437 438 0=8
BinaryOp         439                      2 1 436 438 439 0=0
ReLU             440                      1 1 439 440
Deconvolution    441                      1 1 440 441 0=8 1=4 11=4 2=1 12=1 3=2 13=2 4=1 14=1 15=1 16=1 5=0 6=1024
Split            splitncnn_8              1 2 441 441_splitncnn_0 441_splitncnn_1
ConvolutionDepthWise 442                      1 1 441_splitncnn_1 442 0=8 1=3 11=3 2=1 12=1 3=1 13=1 4=1 14=1 15=1 16=1 5=0 6=72 7=8
BatchNorm        443                      1 1 442 443 0=8
ReLU             444                      1 1 443 444
Convolution      445                      1 1 444 445 0=4 1=1 11=1 2=1 12=1 3=1 13=1 4=0 14=0 15=0 16=0 5=0 6=32
BatchNorm        446                      1 1 445 446 0=4
ReLU             447                      1 1 446 447
ConvolutionDepthWise 448                      1 1 447 448 0=4 1=3 11=3 2=1 12=1 3=1 13=1 4=1 14=1 15=1 16=1 5=0 6=36 7=4
BatchNorm        449                      1 1 448 449 0=4
ReLU             450                      1 1 449 450
Convolution      451                      1 1 450 451 0=4 1=1 11=1 2=1 12=1 3=1 13=1 4=0 14=0 15=0 16=0 5=0 6=16
BatchNorm        452                      1 1 451 452 0=4
Convolution      453                      1 1 441_splitncnn_0 453 0=4 1=1 11=1 2=1 12=1 3=1 13=1 4=0 14=0 15=0 16=0 5=0 6=32
BatchNorm        454                      1 1 453 454 0=4
BinaryOp         455                      2 1 452 454 455 0=0
ReLU             456                      1 1 455 456
Deconvolution    457                      1 1 456 457 0=4 1=4 11=4 2=1 12=1 3=2 13=2 4=1 14=1 15=1 16=1 5=0 6=256
Convolution      output                   1 1 457 output 0=2 1=3 11=3 2=1 12=1 3=1 13=1 4=1 14=1 15=1 16=1 5=0 6=72
